DQN.pt (torch, 6923 bytes, 8 tensors)

conv.0.weight f4 [8, 9, 3, 3]
000000 9f df 76 bd 3a c9 16 3d 6a c9 0d bb ff 0f 58 bc
       -0.060271855 0.036813 -0.0021634945 -0.0131874075
000010 e9 d5 b9 3c 03 a3 33 bc ae 06 91 bd 19 58 34 bb
       0.022685008 -0.010964158 -0.07081352 -0.002751833
000020 82 4c a2 bd 52 14 99 bd 1e 81 02 3d 6b 3f 7d bd
       -0.07924749 -0.07474579 0.031861417 -0.06182806
000030 4a 7e 28 bd 01 7d 86 3c 90 3f b9 bc 64 5d 98 3d
       -0.041136064 0.016417028 -0.022613317 0.07439688
000040 e3 c9 2c 3d 1c 88 2f bd c7 00 9e 3d c4 5d 3d 3d
       0.04218472 -0.042854413 0.07714992 0.046232
000050 90 eb 2e 3d f7 17 09 3e b1 2b 07 be 38 fd c2 bd
       0.04270512 0.13388048 -0.1320026 -0.09520954
000060 26 45 9a be a0 fd 17 bd 05 60 a4 3d 0b 08 d0 3d
       -0.3013088 -0.03710711 0.08026127 0.10157784
000070 ee 8f 14 bd da 05 f3 3b 00 cc ed 3c 57 2e ee bd
       -0.036270075 0.007416469 0.029027939 -0.116299324
000080 90 92 99 3c 86 92 5d 3d 6f 3a d8 bc 83 47 30 3d
       0.018746644 0.054094814 -0.02639505 0.04303695
000090 21 4f 72 bc 8f 32 40 3c 66 80 13 bb 37 6d b2 bc
       -0.014789374 0.011730804 -0.0022506951 -0.021780593
0000a0 6d cc 11 be ca f1 a2 3d 59 11 bc bc e1 2b ef 3c
       -0.14238138 0.07956274 -0.02295749 0.029195728
0000b0 93 59 ea bb 5a 52 22 3d 64 fb f8 3c 52 ad 67 3d
       -0.0071517914 0.039629318 0.03039331 0.056561776
0000c0 c0 ea be 39 df de 3f 3d aa 70 b3 bb b2 7a 85 3b
       0.00036414526 0.046843406 -0.005476077 0.0040734643
0000d0 31 6a b6 3c e6 15 71 3d c4 2d 13 3e d0 46 f2 3d
       0.022267433 0.058858775 0.14372927 0.11829913
0000e0 df e0 81 bd ef ee 89 3d 99 fb 11 bd fe 30 fd bc
       -0.06341719 0.06735026 -0.035640333 -0.03090715
0000f0 68 5a 78 be 76 c0 57 3e 26 03 8b 3d c2 e5 ac bd
       -0.24253237 0.21069512 0.0678771 -0.0844226
000100 82 7e ef bb db e3 71 bd 31 ad cc bd aa af 89 3d
       -0.007308782 -0.05905519 -0.09993971 0.067229584
000110 59 ce 5d bd 78 cd b1 3d 5e a2 03 bd 51 a3 11 3d
       -0.054151867 0.08681768 -0.032137267 0.03555614
000120 2c 5a b9 bd f7 86 21 3d e1 79 3e be 96 3f a1 3c
       -0.09050402 0.039435353 -0.1860118 0.01968364
000130 a4 c3 a7 bc a2 b2 86 bc 5b ef 9f 3d 50 6a b7 3d
       -0.02047903 -0.0164426 0.07809325 0.089558244
000140 74 25 d9 bc fd 34 aa bc dd d7 3a bd c2 4d cc 3c
       -0.026507117 -0.02077722 -0.04561602 0.024939422
000150 bb 27 63 3d b5 e1 7c 3d d0 52 f0 bc 04 9c c6 3b
       0.05545781 0.06173869 -0.029336363 0.006061079
000160 26 b0 84 bc 24 8c 0a bc 5b 67 8f 3c 1b 6a 22 bd
       -0.016197275 -0.008456264 0.017505338 -0.03965197
000170 67 0a 09 3c 29 0c d6 bc 71 68 06 3e b8 e5 03 be
       0.0083642965 -0.026128845 0.13125779 -0.128806
000180 d3 1c 5c 3c 60 50 58 bd 62 87 33 3c fd 67 ba 3d
       0.013434607 -0.052811027 0.010957571 0.091018654
000190 59 a2 12 3e c8 2e 21 be e7 47 b2 bd a4 86 22 3e
       0.14319743 -0.15740502 -0.087051205 0.15871674
0001a0 38 57 7d be 33 c5 c2 bd bb 6c aa 3d 60 26 9c 3d
       -0.24740303 -0.09510269 0.0832152 0.07624507
0001b0 ef 39 d3 bc 00 6c 31 bd 1f 9e 21 bd 18 38 91 3d
       -0.02578446 -0.043315887 -0.039457437 0.07090777
0001c0 e5 1f ac 3c 30 7e 83 b9 cd c4 8e 3d 1e 5b d8 3b
       0.021011302 -0.00025080284 0.069711305 0.006602659
0001d0 d6 5d 06 3d 26 37 1b 3d a5 d6 fe bd a8 f6 e9 3d
       0.032804333 0.03789439 -0.12443284 0.11423999
0001e0 63 4b 2e bc 07 58 48 bd e8 5d e6 3c 38 89 88 bd
       -0.010638091 -0.048912074 0.02812095 -0.066667974
0001f0 16 77 1f 3e 7c b4 81 bd 95 61 42 bd e5 ec af bc
       0.15572771 -0.06333253 -0.047456343 -0.021475265
000200 35 f2 32 bd e9 63 9a 3c df 0d 21 3d 56 31 94 3d
       -0.043688018 0.018846469 0.03931987 0.072359726
000210 7b 8f ba 3d 43 bb 98 bc 3b 19 7a 3d 83 dc 0a 3d
       0.09109398 -0.01864398 0.061059218 0.033901703
000220 b0 db f2 3d bb a6 fb bd e8 b6 58 bd 7c 72 73 bd
       0.11858308 -0.12287661 -0.052908808 -0.059435353
000230 c2 3c 26 be 97 30 3e bc cf 22 44 3e 82 d6 52 3d
       -0.16234115 -0.011608264 0.19153903 0.0514741
000240 24 c1 47 3d 0c 7b 30 bc ed 24 f4 bb 29 03 1d 3c
       0.048768178 -0.010771524 -0.007450691 0.009583273
000250 81 ef 66 39 8b c2 2d 3d 2f 42 51 bc c1 58 93 3d
       0.00022023731 0.04242186 -0.012772127 0.07194663
000260 d8 44 92 3c 32 6e d7 bc ed 8e 25 bc c0 bf 7a bc
       0.017855093 -0.026297662 -0.010104877 -0.015304506
000270 e8 4a 9c 3c 2e 21 2d bb 4c 33 10 3d 3b c6 00 bd
       0.019078687 -0.0026417482 0.03520517 -0.031439047
000280 ee be 0c bd 25 be 90 bd 1a 7b 3f bd ef ca bf bb
       -0.034361772 -0.07067517 -0.04674826 -0.005853049
000290 ea d6 aa bc 3f dd 32 bd 34 dc 9c bd 9b a0 d1 3d
       -0.020854432 -0.043668028 -0.07659188 0.10235711
0002a0 f8 df cc b9 8b d3 0e bc e7 32 27 3d e7 6a 1a 3d
       -0.00039076782 -0.008717428 0.04082003 0.037699606
0002b0 92 09 b8 bd 73 71 65 3d 4a ee b7 bc 6f 7a c2 bc
       -0.089862004 0.056016397 -0.022452492 -0.023740022
0002c0 00 a0 ca bc 6c 87 fb bd 3c fd 35 3d 69 25 dd 3c
       -0.024734497 -0.12281689 0.044430956 0.026995378
0002d0 61 00 57 be 91 7a e7 bc c2 d3 85 3e 9c 1f 17 be
       -0.20996238 -0.028256686 0.2613812 -0.14758152
0002e0 e1 74 97 bd 00 bb 70 bc 2b bb e9 bd 8a 05 c2 3c
       -0.0739534 -0.014693022 -0.114126526 0.023684282
0002f0 6c 1d 1a 3d 51 fd db bc 13 fd d3 bc d1 49 c9 3c
       0.037625715 -0.02685419 -0.025877511 0.024571331
000300 f9 f0 ad 3c 96 e7 21 bd 8a 2a 37 bd 4c 61 a0 bc
       0.021233069 -0.0395275 -0.044718303 -0.019577645
000310 ca 4c 21 3d 5a d7 d6 3d d1 cd 47 3d c8 ed 4b bc
       0.039379872 0.10490294 0.048780266 -0.012446828
000320 34 31 e1 bb 8a 07 ac bc b4 83 43 bd f7 2c c4 3c
       -0.0068723205 -0.020999689 -0.047733024 0.023947222
000330 4e 71 ba bd 2f 00 f2 bc 4a f5 e2 3d db 6b 79 3d
       -0.091036424 -0.029541103 0.110819414 0.060893875
000340 45 99 7d bb b9 93 e7 bc 9f 9b ee bc e0 78 5b bd
       -0.0038696092 -0.028268682 -0.02912694 -0.053582072
000350 58 b9 82 bc d7 eb 37 bb 12 66 11 bd 9b af 83 3d
       -0.01595752 -0.0028064155 -0.035497732 0.064299785
000360 c1 69 a5 be 92 c6 89 bc db 4f 93 3e a1 30 21 bd
       -0.32307246 -0.016818319 0.28771862 -0.039353017
000370 0c fb d4 bc 67 59 d7 3b 05 eb a8 bd 92 f2 40 3e
       -0.025998615 0.006571937 -0.082479514 0.18842533
000380 a6 d7 1e bd 07 a7 3b bd 98 e3 f6 3c 87 06 9f 3d
       -0.038779877 -0.045813587 0.030137822 0.07764917
000390 02 6c 85 bd 1e 70 b2 bc da bb 87 3c 8d 89 d2 bd
       -0.065147415 -0.021781977 0.016569067 -0.10280142
0003a0 32 8a fc bc 52 1d e8 3c 60 b2 1d bd 4b 5e 36 3d
       -0.030827615 0.028334294 -0.03850019 0.04452352
0003b0 62 5d 37 bd 6c 54 fd 3c f2 04 9f bc 68 0d a6 3d
       -0.04476679 0.030924045 -0.019411538 0.08108026
0003c0 8f ae 91 bd 2f 92 ea 3c 1c e4 22 3d 6b 5d 00 b9
       -0.071133725 0.028634159 0.039768323 -0.00012241832
0003d0 0f b5 d2 bc a1 e7 fe 3c af 0d f1 3c 43 65 3f bd
       -0.025721101 0.031116309 0.02942547 -0.04672743
0003e0 63 17 57 3d 1c db d3 bb a1 18 97 3c 85 dc cb bc
       0.052512538 -0.006465329 0.018444361 -0.024885425
0003f0 0a bb 86 bd 69 77 83 3c 6e 60 fd bc d9 0b f3 3d
       -0.065786436 0.01604815 -0.03092977 0.11867494

conv.0.bias f4 [8]
000000 18 f6 ab 3c 78 27 5a 3d 17 d8 d8 3d 69 7f c8 3d
       0.02099137 0.053260297 0.10588091 0.097899266
000010 dd ec a0 bd 0b 79 92 bc 04 85 c8 bd c5 12 65 3d
       -0.07857678 -0.017879983 -0.09790996 0.055926103

conv.1.weight f4 [8]
000000 92 ea 58 3f 8c 2a 6e 3f 8e f3 83 3f 36 21 83 3f
       0.84732926 0.9303367 1.0308702 1.024451
000010 28 4b 87 3f 52 fd 45 3f d7 39 81 3f 34 b6 44 3f
       1.0569811 0.7733966 1.0095776 0.7684052

conv.1.bias f4 [8]
000000 82 09 7c be 4b df 06 be fc 37 14 be f9 aa 32 bd
       -0.24613002 -0.13171117 -0.14474481 -0.043620083
000010 e6 38 96 bd 40 b8 a5 3d 74 38 d8 bb 41 47 da bd
       -0.07335071 0.080917835 -0.0065985266 -0.10658122

conv.1.running_mean f4 [8]
000000 2c 19 a2 c0 56 80 f5 41 2c e6 1d 41 80 7f 80 42
       -5.0655727 30.687664 9.868694 64.24902
000010 b6 04 47 42 ee be ba 40 fd df f8 41 d1 8a 1d 43
       49.7546 5.835807 31.10937 157.54225

conv.1.running_var f4 [8]
000000 67 7e 49 44 90 57 24 44 76 61 b0 44 1d a4 8d 44
       805.97504 657.36816 1411.0457 1133.1285
000010 0b c7 86 44 78 93 3e 44 46 d4 28 44 d1 ef b2 44
       1078.2201 762.3042 675.3168 1431.4943

fc.1.weight f4 [5, 64]
000000 c9 63 31 bc 5f 90 15 bc e4 c4 f9 bc bd 58 46 3d
       -0.010827013 -0.009128659 -0.030489393 0.04842447
000010 d7 cb a3 bd 72 b5 a1 3d 50 b1 0e 3e c8 67 d4 3b
       -0.07997864 0.07895936 0.13934827 0.0064820983
000020 3d 39 a2 bd f8 62 e0 bc cf a9 c3 bd 43 d4 f9 bd
       -0.079210736 -0.027390942 -0.09553873 -0.12198689
000030 64 1a 1d 3d 32 94 21 3c cb 74 52 3d 14 06 bd bd
       0.038355246 0.009861993 0.051380914 -0.09229675
000040 0c 11 13 be f8 b3 a3 bc a6 b0 8e bd 63 f3 cc bd
       -0.14361972 -0.019983277 -0.06967287 -0.1000736
000050 45 ac e5 3d c4 43 9e 3c 6c 7f b5 3d 02 67 47 3d
       0.112144984 0.019319423 0.088621944 0.04868222
000060 8a 98 be bd a5 23 6f bd a8 8a 4f 3d d7 f3 c0 3d
       -0.09306438 -0.058383603 0.050669342 0.09421509
000070 3b 9c a4 3d 10 43 d8 bd cf df 04 be 96 1e 20 bd
       0.08037611 -0.10559666 -0.12976001 -0.03909167
000080 04 b9 3a bd 3c b8 a6 bd 6a 38 a5 bd 1a e6 2c 3d
       -0.0455866 -0.08140609 -0.08067401 0.04221163
000090 c9 c1 1e be a3 6e cc 3c 29 a4 c6 bd d7 0c b2 3d
       -0.1550361 0.0249551 -0.0969928 0.08693855
0000a0 4c 9d 2d bc 85 70 99 bb e0 92 83 bd d3 e4 8f 3d
       -0.0105965845 -0.004682603 -0.064244986 0.07026067
0000b0 7b 6c 77 bd e8 e0 cf bc a8 1b 14 bd c4 df 64 3d
       -0.06040619 -0.025375798 -0.036159188 0.055877462
0000c0 fb 27 1b bd 54 f6 65 bd 71 09 6a bc a6 2b 56 bd
       -0.037879925 -0.05614312 -0.014284478 -0.05228772
0000d0 10 c4 b7 bd 5f bc 59 bb e6 63 d0 bd 76 50 0d be
       -0.08972943 -0.003322385 -0.10175304 -0.13800225
0000e0 51 b3 f9 bc 25 5c 15 3d bd 6b 74 3d 73 e2 8a 3d
       -0.030481013 0.03646483 0.05967306 0.06781473
0000f0 42 fc 01 3e 8c ca af bd 9c 46 12 bd dd 26 b0 bb
       0.12693885 -0.085835546 -0.03571187 -0.0053757266
000100 e0 49 1d bd e7 b1 c3 bc 69 28 92 bc c1 2a 58 3d
       -0.03840053 -0.023888541 -0.017841535 0.05277515
000110 ca e7 bc bd 0d 86 86 3d fd 77 36 3e 82 47 b1 3c
       -0.09223898 0.06568537 0.1781921 0.021640543
000120 fe 07 c2 bd 33 6e 02 bd f7 3b ca bd 69 04 04 be
       -0.09474181 -0.031843375 -0.09874719 -0.12892307
000130 bc ec 47 3d e5 ea ca 3c 93 75 93 3d 7c b2 e6 bd
       0.048809752 0.02477021 0.0720016 -0.11264512
000140 b1 be 19 be af 39 37 bd e4 fe a6 bd b0 5a b0 bd
       -0.15014149 -0.044732746 -0.08154085 -0.08611047
000150 1f 99 bb 3d 2d a1 5c 3c c3 46 84 3d ef 29 ad 3d
       0.09160065 0.013466162 0.06458809 0.08455264
000160 cb 7b b0 bd 63 46 f9 bc aa f8 3d 3d bd fd c9 3d
       -0.08617362 -0.03042907 0.046379723 0.0986285
000170 b7 b5 c1 3d 43 3e d2 bd 1e 8e 16 be 2b f1 10 bd
       0.094584875 -0.10265782 -0.14702651 -0.035386246
000180 be ea 5d bd 08 07 87 bd 53 c1 cc bd 22 44 40 3d
       -0.054178946 -0.06593138 -0.09997811 0.046939977
000190 85 1b 2c be ee fa e4 3c cb f0 df bd 54 71 cd 3d
       -0.16807373 0.027951684 -0.109345995 0.10031381
0001a0 e8 27 47 bc c5 e0 9e bc 38 61 31 bd ce 42 89 3d
       -0.0121555105 -0.019394288 -0.043305606 0.06702195
0001b0 11 53 81 bd 46 4c 1b 3c 84 33 a5 bd b6 3f 25 3d
       -0.06314672 0.009478634 -0.080664665 0.040343963
0001c0 8a 7f f2 bc 49 08 69 bd 70 20 71 bc e6 f3 50 bd
       -0.029601831 -0.056892667 -0.014717206 -0.05101385
0001d0 7e c3 48 bd 85 36 cf 3b 59 32 ad bd 7a 92 21 be
       -0.04901456 0.006323638 -0.08456869 -0.15778533
0001e0 65 7f 83 bd 9c e1 eb 3a 16 ed 07 3d e2 55 82 3d
       -0.06420783 0.0017996314 0.033185087 0.06364037
0001f0 8e 9d 2d 3d 39 1c a0 bd 7a ba 74 bd 62 fc 99 3c
       0.042386584 -0.07817883 -0.05974815 0.018797103
000200 dd 4c 66 bd e0 61 1c bb 64 6e 65 3c c2 4d 7b 3d
       -0.056225646 -0.002386205 0.01400337 0.061353453
000210 e3 15 dc bd 8a 54 df 3d 84 7f 5d 3e 92 ed 0f 3c
       -0.10746362 0.109047964 0.21630675 0.0087846685
000220 be 10 e4 bd a1 af 1a bd fd 55 00 be 23 28 20 be
       -0.11136006 -0.03776515 -0.12532802 -0.15640311
000230 8b a5 8f 3d ab 22 95 3c 10 85 51 3d 8a a8 cc bd
       0.07013997 0.018205008 0.05115229 -0.09993084
000240 ca e7 14 be 5f bf d1 bc 1b 98 8a bd f3 43 43 be
       -0.14541546 -0.025603948 -0.06767293 -0.1906889
000250 18 38 0a 3e 0d 43 8e 3d ea 4d d1 3d 04 62 d8 3b
       0.1349796 0.06946383 0.10219939 0.0066034812
000260 5e c7 b8 bd cd 2a 39 bd 3f 79 96 3d c8 64 04 3e
       -0.09022401 -0.045206834 0.073473446 0.1292907
000270 89 49 c4 3d f2 68 23 be 88 ec 49 be 39 85 4a bd
       0.09584338 -0.15958002 -0.19719136 -0.049443457
000280 91 80 5d bd 77 e3 85 bd e1 92 a2 bd d8 1a 5f 3d
       -0.05407769 -0.06537526 -0.07938171 0.05446896
000290 16 4e 2a be 71 70 0c 3d 81 f2 e2 bd bb 73 cf 3d
       -0.1663135 0.03428692 -0.1108141 0.10129496
0002a0 b1 78 b8 bc c9 09 0b bd f3 43 bf bd 6b 80 79 3d
       -0.022518488 -0.03394488 -0.09339132 0.060913485
0002b0 f3 4a 80 bd 3f 6a 41 bd 6a 6a 1c bb e4 0b 98 3d
       -0.062642954 -0.047220465 -0.0023867139 0.07424143
0002c0 76 fe 3d bd ba cc 37 bd f8 a7 be bc 44 ec 6f bd
       -0.04638525 -0.044872977 -0.023273453 -0.05857493
0002d0 66 a1 b6 bd 30 57 b3 bb e7 16 ce bd 17 dc 06 be
       -0.08917503 -0.00547304 -0.10062962 -0.13169895
0002e0 2d 3c 59 bd e0 ac 80 3c b5 82 85 3d f3 5f d9 3d
       -0.053035904 0.015707433 0.06519071 0.10614004
0002f0 ee db bd 3d f7 41 e4 bc d9 28 00 bd 27 11 7a bd
       0.09270464 -0.027863486 -0.031288955 -0.061051514
000300 c5 66 66 bc 7b e6 d3 bc 52 4d c5 bc 8f 9e 85 3d
       -0.014062588 -0.025866738 -0.02408472 0.06524383
000310 6b 14 ec bd 66 71 e2 3d 5b e5 2f 3e 12 38 03 3c
       -0.11527332 0.11056785 0.17177336 0.008008974
000320 b7 d5 86 bd 2c 24 1d bd df 9a ff bd 69 05 08 be
       -0.065837316 -0.038364574 -0.12480711 -0.13283314
000330 1f f9 83 3d 66 08 93 3c 36 fb 40 3d 65 f3 fe bd
       0.064440005 0.01794834 0.047114573 -0.124487676
000340 7a 57 16 be 5d 9e 1c bc 64 a5 94 bd dc 53 cd bd
       -0.14681807 -0.009559241 -0.07258108 -0.100257605
000350 46 ef fe 3d a0 9d ae 3c 97 de 2c 3e 4a 90 ba 3c
       0.124479815 0.021315396 0.16881786 0.02277388
000360 fd ca 12 bd e1 7a 2f bd 95 8b ca 3c 7d 20 ca 3d
       -0.035838116 -0.042841796 0.024724761 0.09869478
000370 84 ed b5 3d ac 92 ea bd f1 09 1e be 94 0b 4e bc
       0.08883193 -0.11453757 -0.1543348 -0.012576003
000380 83 c8 ce bd 34 09 c9 bd 69 40 b1 bd 66 32 e1 3c
       -0.10096838 -0.098162085 -0.086548634 0.027489852
000390 71 9b 2c be 02 0c c4 3c ed 1b c3 bd 0a eb b0 3d
       -0.16856171 0.023931507 -0.09526811 0.0863858
0003a0 79 1e 0e bd 13 fe f9 bc 43 9f 67 bd 81 41 d2 3d
       -0.03469703 -0.03051666 -0.05654837 0.102664
0003b0 e0 71 ac bd e9 44 0f bd ce 25 81 bd da 88 6e 3d
       -0.084201574 -0.034977827 -0.06306039 0.05823598
0003c0 41 66 1b bd b7 c2 75 bd c7 e5 c3 bc 4b aa 62 bd
       -0.037939314 -0.060000148 -0.023913277 -0.055338185
0003d0 3f 69 42 bd 8e 77 9d bc ec 85 c8 bd f2 21 07 be
       -0.04746365 -0.019222047 -0.097911686 -0.13196543
0003e0 e7 f9 1c bd 44 16 63 3c cb 2d 4b 3d 62 35 96 3d
       -0.038324263 0.013860289 0.04960422 0.07334401
0003f0 d1 b9 43 bd 41 81 25 bd 43 bc 2b bd 14 14 1f bd
       -0.04778463 -0.04040647 -0.041927587 -0.038837507

fc.1.bias f4 [5]
000000 08 da 34 3b 5e c9 0f bd ae 2f cc bc 5f 89 16 3c
       0.0027595777 -0.035104148 -0.02492508 0.009188025
000010 63 d4 4d bd
       -0.050251376
